simple_mlp.pth (torch, 2875 bytes, 4 tensors)

net.0.weight f4 [16, 2]
-0.69749665 0.62912714 -0.1147154 -0.21913192 0.26040447 -0.6838804 -0.019957816 -0.49583092
-0.54237807 0.32774675 0.13158134 0.71655774 -0.37387526 0.7255137 0.75135845 -0.05515508
-0.645978 0.6835064 0.5447482 0.41770345 0.6947789 0.21994467 0.016307116 -0.00090026855
0.66678995 -0.007950831 -0.52827406 0.621174 0.52759516 0.70237434 0.0799183 -0.17832933
00000000: 248f 32bf 7a0e 213f e8ef eabd 1e64 60be
00000010: bc53 853e c912 2fbf 937e a3bc 8ddd fdbe
00000020: 4ad9 0abf 6cce a73e 42bd 063e 5470 373f
00000030: 946c bfbe 44bb 393f 0759 403f 4bea 61bd
00000040: d05e 25bf 47fa 2e3f 9e74 0b3f 3add d53e
00000050: 08dd 313f 2d39 613e 8096 853c 0000 6cba
00000060: bfb2 2a3f 3444 02bc f83c 07bf 4205 1f3f
00000070: 7a10 073f cece 333f 35ac a33d f79b 36be

net.0.bias f4 [16]
0.6509757 0.3021266 0.43141305 0.47507212 0.15588295 -0.2363673 -0.047910135 0.54690355
-0.16905907 -0.30429292 0.6052428 -0.5964598 -0.1678588 -0.0045731957 0.021198567 -0.6929555
00000000: 58a6 263f 56b0 9a3e 2ce2 dc3e a73c f33e
00000010: c89f 1f3e 450a 72be 6b3d 44bd df01 0c3f
00000020: d21d 2dbe 48cc 9bbe 31f1 1a3f 97b1 18bf
00000030: 2de3 2bbe bfda 95bb 9ea8 ad3c 8865 31bf

net.2.weight f4 [2, 16]
0.027029516 0.21300977 0.04451722 -0.13071375 0.831898 -0.023282086 0.03821993 -1.3759584
0.22408126 -0.4581504 -0.3904801 -0.23087654 -0.33527723 0.17872486 -0.13527897 0.05840748
-0.40307367 -0.10970873 -0.057201184 0.033155777 -0.75062585 0.06603364 -0.34402326 1.6389196
-0.16943672 0.2046119 0.0655658 0.108611375 0.17561531 -0.38919112 0.06382035 0.15466589
00000000: 016d dd3c 3c1f 5a3e b057 363d d3d9 05be
00000010: 44f7 543f 13ba bebc 808c 1c3d 681f b0bf
00000020: 8f75 653e b092 eabe 02ed c7be e66a 6cbe
00000030: 75a9 abbe a603 373e 9286 0abe af3c 6f3d
00000040: ac5f cebe f8ae e0bd ca4b 6abd 5ace 073d
00000050: 0429 40bf a53c 873d d123 b0be 1ec8 d13f
00000060: d280 2dbe c885 513e 5d47 863d a46f de3d
00000070: 80d4 333e 0f44 c7be 3eb4 823d bc60 1e3e

net.2.bias f4 [2]
-0.16735046 0.111628115
00000000: eb5d 2bbe 489d e43d
